…
C:\Users\yi-chang chen\Desktop\Tensorflow Workspace\method1.py:53: UserWarning: Update your `Dense` call to the Keras 2 API: `Dense(512, kernel_initializer="he_normal")`
  model.add(Dense(512, init='he_normal'))
C:\Users\yi-chang chen\Desktop\Tensorflow Workspace\method1.py:57: UserWarning: Update your `Dense` call to the Keras 2 API: `Dense(10, kernel_initializer="he_normal")`
  model.add(Dense(10, init='he_normal'))
_________________________________________________________________
Layer (type)                 Output Shape              Param #
=================================================================
conv2d_1 (Conv2D)            (None, 28, 28, 192)       14592
_________________________________________________________________
batch_normalization_1 (Batch (None, 28, 28, 192)       768
_________________________________________________________________
activation_1 (Activation)    (None, 28, 28, 192)       0
_________________________________________________________________
max_pooling2d_1 (MaxPooling2 (None, 14, 14, 192)       0
_________________________________________________________________
conv2d_2 (Conv2D)            (None, 14, 14, 256)       49408
_________________________________________________________________
batch_normalization_2 (Batch (None, 14, 14, 256)       1024
_________________________________________________________________
activation_2 (Activation)    (None, 14, 14, 256)       0
_________________________________________________________________
max_pooling2d_2 (MaxPooling2 (None, 7, 7, 256)         0
_________________________________________________________________
conv2d_3 (Conv2D)            (None, 7, 7, 384)         98688
_________________________________________________________________
batch_normalization_3 (Batch (None, 7, 7, 384)         1536
_________________________________________________________________
activation_3 (Activation)    (None, 7, 7, 384)         0
_________________________________________________________________
conv2d_4 (Conv2D)            (None, 7, 7, 256)         98560
_________________________________________________________________
batch_normalization_4 (Batch (None, 7, 7, 256)         1024
_________________________________________________________________
activation_4 (Activation)    (None, 7, 7, 256)         0
_________________________________________________________________
conv2d_5 (Conv2D)            (None, 5, 5, 192)         442560
_________________________________________________________________
batch_normalization_5 (Batch (None, 5, 5, 192)         768
_________________________________________________________________
activation_5 (Activation)    (None, 5, 5, 192)         0
_________________________________________________________________
flatten_1 (Flatten)          (None, 4800)              0
_________________________________________________________________
dense_1 (Dense)              (None, 512)               2458112
_________________________________________________________________
batch_normalization_6 (Batch (None, 512)               2048
_________________________________________________________________
activation_6 (Activation)    (None, 512)               0
_________________________________________________________________
dropout_1 (Dropout)          (None, 512)               0
_________________________________________________________________
dense_2 (Dense)              (None, 10)                5130
_________________________________________________________________
activation_7 (Activation)    (None, 10)                0
=================================================================
Total params: 3,174,218
Trainable params: 3,170,634
Non-trainable params: 3,584
_________________________________________________________________
Epoch 1/25
2017-06-28 23:37:24.990935: W c:\tf_jenkins\home\workspace\release-win\device\gpu\os\windows\tensorflow\core\platform\cpu_feature_guard.cc:45] The TensorFlow library wasn't compiled to use SSE instructions, but these are available on your machine and could speed up CPU computations.
…
