_________________________________________________________________
Layer (type)                 Output Shape              Param #   
=================================================================
input_1 (InputLayer)         (None, 32, 32, 3)         0         
_________________________________________________________________
batch_normalization_1 (Batch (None, 32, 32, 3)         12        
_________________________________________________________________
conv2d_1 (Conv2D)            (None, 32, 32, 8)         608       
_________________________________________________________________
batch_normalization_2 (Batch (None, 32, 32, 8)         32        
_________________________________________________________________
activation_1 (Activation)    (None, 32, 32, 8)         0         
_________________________________________________________________
max_pooling2d_1 (MaxPooling2 (None, 16, 16, 8)         0         
_________________________________________________________________
dropout_1 (Dropout)          (None, 16, 16, 8)         0         
_________________________________________________________________
conv2d_2 (Conv2D)            (None, 16, 16, 4)         804       
_________________________________________________________________
batch_normalization_3 (Batch (None, 16, 16, 4)         16        
_________________________________________________________________
activation_2 (Activation)    (None, 16, 16, 4)         0         
_________________________________________________________________
max_pooling2d_2 (MaxPooling2 (None, 8, 8, 4)           0         
_________________________________________________________________
dropout_2 (Dropout)          (None, 8, 8, 4)           0         
_________________________________________________________________
conv2d_3 (Conv2D)            (None, 8, 8, 10)          370       
_________________________________________________________________
batch_normalization_4 (Batch (None, 8, 8, 10)          40        
_________________________________________________________________
activation_3 (Activation)    (None, 8, 8, 10)          0         
_________________________________________________________________
average_pooling2d_1 (Average (None, 1, 1, 10)          0         
_________________________________________________________________
flatten_1 (Flatten)          (None, 10)                0         
_________________________________________________________________
activation_4 (Activation)    (None, 10)                0         
=================================================================
Total params: 1,882
Trainable params: 1,832
Non-trainable params: 50
_________________________________________________________________
Train on 9000 samples, validate on 500 samples
[2K[2KEpoch 1/3

  16/9000 [..............................] - ETA: 8:10 - loss: 2.3129 - acc: 0.1250
  48/9000 [..............................] - ETA: 2:55 - loss: 2.3280 - acc: 0.0625
…
