_________________________________________________________________
Layer (type)                 Output Shape              Param #   
=================================================================
input_1 (InputLayer)         (None, 32, 32, 3)         0         
_________________________________________________________________
lambda_1 (Lambda)            (None, 32, 32, 3)         0         
_________________________________________________________________
conv2d_1 (Conv2D)            (None, 32, 32, 160)       12160     
_________________________________________________________________
batch_normalization_1 (Batch (None, 32, 32, 160)       640       
_________________________________________________________________
activation_1 (Activation)    (None, 32, 32, 160)       0         
_________________________________________________________________
max_pooling2d_1 (MaxPooling2 (None, 16, 16, 160)       0         
_________________________________________________________________
conv2d_2 (Conv2D)            (None, 16, 16, 96)        138336    
_________________________________________________________________
batch_normalization_2 (Batch (None, 16, 16, 96)        384       
_________________________________________________________________
activation_2 (Activation)    (None, 16, 16, 96)        0         
_________________________________________________________________
conv2d_3 (Conv2D)            (None, 16, 16, 4)         3460      
_________________________________________________________________
batch_normalization_3 (Batch (None, 16, 16, 4)         16        
_________________________________________________________________
activation_3 (Activation)    (None, 16, 16, 4)         0         
_________________________________________________________________
max_pooling2d_2 (MaxPooling2 (None, 8, 8, 4)           0         
_________________________________________________________________
conv2d_4 (Conv2D)            (None, 8, 8, 4)           148       
_________________________________________________________________
batch_normalization_4 (Batch (None, 8, 8, 4)           16        
_________________________________________________________________
activation_4 (Activation)    (None, 8, 8, 4)           0         
_________________________________________________________________
up_sampling2d_1 (UpSampling2 (None, 16, 16, 4)         0         
_________________________________________________________________
conv2d_5 (Conv2D)            (None, 16, 16, 96)        3552      
_________________________________________________________________
batch_normalization_5 (Batch (None, 16, 16, 96)        384       
_________________________________________________________________
activation_5 (Activation)    (None, 16, 16, 96)        0         
_________________________________________________________________
conv2d_6 (Conv2D)            (None, 16, 16, 160)       384160    
_________________________________________________________________
batch_normalization_6 (Batch (None, 16, 16, 160)       640       
_________________________________________________________________
activation_6 (Activation)    (None, 16, 16, 160)       0         
_________________________________________________________________
up_sampling2d_2 (UpSampling2 (None, 32, 32, 160)       0         
_________________________________________________________________
conv2d_7 (Conv2D)            (None, 32, 32, 3)         4323      
=================================================================
Total params: 548,219
Trainable params: 547,179
Non-trainable params: 1,040
_________________________________________________________________
Train on 99000 samples, validate on 500 samples
Epoch 1/10
  128/99000 [..............................] - ETA: 5740s - loss: 0.7748
…
