_________________________________________________________________
Layer (type)                 Output Shape              Param #   
=================================================================
input_1 (InputLayer)         (None, 32, 32, 3)         0         
_________________________________________________________________
batch_normalization_1 (Batch (None, 32, 32, 3)         12        
_________________________________________________________________
conv2d_1 (Conv2D)            (None, 32, 32, 32)        2432      
_________________________________________________________________
batch_normalization_2 (Batch (None, 32, 32, 32)        128       
_________________________________________________________________
activation_1 (Activation)    (None, 32, 32, 32)        0         
_________________________________________________________________
max_pooling2d_1 (MaxPooling2 (None, 16, 16, 32)        0         
_________________________________________________________________
dropout_1 (Dropout)          (None, 16, 16, 32)        0         
_________________________________________________________________
conv2d_2 (Conv2D)            (None, 16, 16, 16)        12816     
_________________________________________________________________
batch_normalization_3 (Batch (None, 16, 16, 16)        64        
_________________________________________________________________
activation_2 (Activation)    (None, 16, 16, 16)        0         
_________________________________________________________________
max_pooling2d_2 (MaxPooling2 (None, 8, 8, 16)          0         
_________________________________________________________________
dropout_2 (Dropout)          (None, 8, 8, 16)          0         
_________________________________________________________________
conv2d_3 (Conv2D)            (None, 8, 8, 10)          1450      
_________________________________________________________________
batch_normalization_4 (Batch (None, 8, 8, 10)          40        
_________________________________________________________________
activation_3 (Activation)    (None, 8, 8, 10)          0         
_________________________________________________________________
average_pooling2d_1 (Average (None, 1, 1, 10)          0         
_________________________________________________________________
flatten_1 (Flatten)          (None, 10)                0         
_________________________________________________________________
activation_4 (Activation)    (None, 10)                0         
=================================================================
Total params: 16,942
Trainable params: 16,820
Non-trainable params: 122
_________________________________________________________________
Train on 9000 samples, validate on 500 samples
[2K[2KEpoch 1/1

  16/9000 [..............................] - ETA: 7:34 - loss: 2.2951 - acc: 0.1875
  32/9000 [..............................] - ETA: 4:07 - loss: 2.3012 - acc: 0.1562
…
