_________________________________________________________________
Layer (type)                 Output Shape              Param #   
=================================================================
input_1 (InputLayer)         (None, 32, 32, 3)         0         
_________________________________________________________________
batch_normalization_1 (Batch (None, 32, 32, 3)         12        
_________________________________________________________________
conv2d_1 (Conv2D)            (None, 32, 32, 192)       14592     
_________________________________________________________________
batch_normalization_2 (Batch (None, 32, 32, 192)       768       
_________________________________________________________________
activation_1 (Activation)    (None, 32, 32, 192)       0         
_________________________________________________________________
conv2d_2 (Conv2D)            (None, 32, 32, 160)       30880     
_________________________________________________________________
batch_normalization_3 (Batch (None, 32, 32, 160)       640       
_________________________________________________________________
activation_2 (Activation)    (None, 32, 32, 160)       0         
_________________________________________________________________
conv2d_3 (Conv2D)            (None, 32, 32, 96)        15456     
_________________________________________________________________
batch_normalization_4 (Batch (None, 32, 32, 96)        384       
_________________________________________________________________
activation_3 (Activation)    (None, 32, 32, 96)        0         
_________________________________________________________________
max_pooling2d_1 (MaxPooling2 (None, 16, 16, 96)        0         
_________________________________________________________________
dropout_1 (Dropout)          (None, 16, 16, 96)        0         
_________________________________________________________________
conv2d_4 (Conv2D)            (None, 16, 16, 192)       460992    
_________________________________________________________________
batch_normalization_5 (Batch (None, 16, 16, 192)       768       
_________________________________________________________________
activation_4 (Activation)    (None, 16, 16, 192)       0         
_________________________________________________________________
conv2d_5 (Conv2D)            (None, 16, 16, 192)       37056     
_________________________________________________________________
batch_normalization_6 (Batch (None, 16, 16, 192)       768       
_________________________________________________________________
activation_5 (Activation)    (None, 16, 16, 192)       0         
_________________________________________________________________
conv2d_6 (Conv2D)            (None, 16, 16, 192)       37056     
_________________________________________________________________
batch_normalization_7 (Batch (None, 16, 16, 192)       768       
_________________________________________________________________
activation_6 (Activation)    (None, 16, 16, 192)       0         
_________________________________________________________________
zero_padding2d_1 (ZeroPaddin (None, 18, 18, 192)       0         
_________________________________________________________________
average_pooling2d_1 (Average (None, 8, 8, 192)         0         
_________________________________________________________________
dropout_2 (Dropout)          (None, 8, 8, 192)         0         
_________________________________________________________________
conv2d_7 (Conv2D)            (None, 8, 8, 192)         331968    
_________________________________________________________________
batch_normalization_8 (Batch (None, 8, 8, 192)         768       
_________________________________________________________________
activation_7 (Activation)    (None, 8, 8, 192)         0         
_________________________________________________________________
conv2d_8 (Conv2D)            (None, 8, 8, 192)         37056     
_________________________________________________________________
batch_normalization_9 (Batch (None, 8, 8, 192)         768       
_________________________________________________________________
activation_8 (Activation)    (None, 8, 8, 192)         0         
_________________________________________________________________
conv2d_9 (Conv2D)            (None, 8, 8, 10)          1930      
_________________________________________________________________
batch_normalization_10 (Batc (None, 8, 8, 10)          40        
_________________________________________________________________
activation_9 (Activation)    (None, 8, 8, 10)          0         
_________________________________________________________________
average_pooling2d_2 (Average (None, 1, 1, 10)          0         
_________________________________________________________________
flatten_1 (Flatten)          (None, 10)                0         
_________________________________________________________________
activation_10 (Activation)   (None, 10)                0         
=================================================================
Total params: 972,670
Trainable params: 969,828
Non-trainable params: 2,842
_________________________________________________________________
Train on 8000 samples, validate on 2000 samples
[2K[2KEpoch 1/2
  16/8000 [..............................] - ETA: 2238s - loss: 2.2884 - acc: 0.1875